…
    In your CMD run:
        [95mset NEPTUNE_API_TOKEN="YOUR_API_TOKEN"[0m

and skip the [1mapi_token[0m argument of the [1minit_run()[0m function:
    [96mneptune.init_run(project='WORKSPACE_NAME/PROJECT_NAME')[0m

You may also want to check the following docs pages:
    - https://docs-legacy.neptune.ai/setup/setting_api_token/

[92mNeed help?[0m-> https://docs-legacy.neptune.ai/getting_help

Overriding model.yaml nc=80 with nc=12

                   from  n    params  module                                       arguments                     
  0                  -1  1      3520  ultralytics.nn.modules.conv.Conv             [3, 32, 6, 2, 2]              
  1                  -1  1     18560  ultralytics.nn.modules.conv.Conv             [32, 64, 3, 2]                
  2                  -1  1     18816  ultralytics.nn.modules.block.C3              [64, 64, 1]                   
  3                  -1  1     73984  ultralytics.nn.modules.conv.Conv             [64, 128, 3, 2]               
  4                  -1  2    115712  ultralytics.nn.modules.block.C3              [128, 128, 2]                 
  5                  -1  1    295424  ultralytics.nn.modules.conv.Conv             [128, 256, 3, 2]              
  6                  -1  3    625152  ultralytics.nn.modules.block.C3              [256, 256, 3]                 
  7                  -1  1   1180672  ultralytics.nn.modules.conv.Conv             [256, 512, 3, 2]              
  8                  -1  1   1182720  ultralytics.nn.modules.block.C3              [512, 512, 1]                 
  9                  -1  1    656896  ultralytics.nn.modules.block.SPPF            [512, 512, 5]                 
 10                  -1  1    131584  ultralytics.nn.modules.conv.Conv             [512, 256, 1, 1]              
 11                  -1  1         0  torch.nn.modules.upsampling.Upsample         [None, 2, 'nearest']          
 12             [-1, 6]  1         0  ultralytics.nn.modules.conv.Concat           [1]                           
 13                  -1  1    361984  ultralytics.nn.modules.block.C3              [512, 256, 1, False]          
 14                  -1  1     33024  ultralytics.nn.modules.conv.Conv             [256, 128, 1, 1]              
 15                  -1  1         0  torch.nn.modules.upsampling.Upsample         [None, 2, 'nearest']          
 16             [-1, 4]  1         0  ultralytics.nn.modules.conv.Concat           [1]                           
 17                  -1  1     90880  ultralytics.nn.modules.block.C3              [256, 128, 1, False]          
 18                  -1  1    147712  ultralytics.nn.modules.conv.Conv             [128, 128, 3, 2]              
 19            [-1, 14]  1         0  ultralytics.nn.modules.conv.Concat           [1]                           
 20                  -1  1    296448  ultralytics.nn.modules.block.C3              [256, 256, 1, False]          
 21                  -1  1    590336  ultralytics.nn.modules.conv.Conv             [256, 256, 3, 2]              
 22            [-1, 10]  1         0  ultralytics.nn.modules.conv.Concat           [1]                           
 23                  -1  1   1182720  ultralytics.nn.modules.block.C3              [512, 512, 1, False]          
 24        [17, 20, 23]  1   2120692  ultralytics.nn.modules.head.Detect           [12, [128, 256, 512]]         
YOLOv5s summary: 153 layers, 9,126,836 parameters, 9,126,820 gradients, 24.1 GFLOPs

Transferred 421/427 items from pretrained weights
Freezing layer 'model.24.dfl.conv.weight'
[34m[1mtrain: [0mFast image access âœ… (ping: 0.0Â±0.0 ms, read: 13.2Â±10.0 MB/s, size: 102.1 KB)
[K[34m[1mtrain: [0mScanning /home1/11112/rasmus1142/ECE381V-Term-Project-ViT-YOLO-Hybri
…
